public/model.tflite (tflite, 228088 bytes, 12 tensors)

arith.constant3 f4 [1, 24]
00000000: 1e13 00bf 1bab db3e eef7 503e 45a8 013f
00000010: d31a 7fbe 7f52 d43e e579 aabe b21a 933e
00000020: 0794 e1be eaa3 4abe fa0d c83e 9ec8 51be
00000030: 79f0 fe3e b562 9dbe 85f4 f33d af58 f0be
00000040: 473e cabe 8482 93be d9e8 663e e945 a5bd
00000050: 7209 3c3d 89aa f3be d840 c03e 5052 043e
-0.5002917 0.4290398 0.20407078 0.50647384 -0.24912576 0.4146919 -0.33296123 0.28731304
-0.44058248 -0.19789091 0.39073163 -0.20486686 0.4979284 -0.3073937 0.11911873 -0.4694266
-0.3950064 -0.28810513 0.22549762 -0.08069975 0.045907445 -0.47591045 0.37549472 0.12922025

arith.constant4 f4 [24, 128]
00000000: 86ad 183e f25e 72be c746 063e 5a92 133e
00000010: a894 4e3e cce6 6cbe 1e37 93bd 1042 803c
00000020: 996c d7bd 1351 0bbe 1d50 023d ee14 08be
00000030: 236c 3a3e a064 b13d 65c2 c4bc dd43 3fbe
00000040: c669 0f3e 9bd8 a9bd 2228 0e3e ff38 d2bd
00000050: c7e3 77bd 1ea7 dcbd 2667 04be 13bd 09be
00000060: 069f 0b3d 8f94 87bd 8021 483e f937 6f3e
00000070: a829 1cbe 397a 20be 9816 58be 7de4 e6bd
00000080: b2a7 ebbd 2c99 4d3e 1857 59be ad94 d7bd
00000090: 5a38 ec3d d0e2 71be 8d74 703e 2419 15be
000000a0: 3ef2 323d a660 f83b 6473 d9bd 7f37 a43c
000000b0: 872d 2abe 3469 40be f067 48be c92d 06be
000000c0: 2751 6d3d 2612 54be 5d2a 53ba 4138 ceba
000000d0: 1bcb 533e 4b35 883d 1f6a 5a3e b095 8f3d
000000e0: dad4 453e 1e80 c4bd bc28 27be 28f5 f4bd
000000f0: 66ec d93d 69aa 8bbc 6561 323e 9204 8b3d
00000100: d1d0 24be 91d9 143e c829 cabd d5bb 2b3e
00000110: 0675 10be 0218 a03d 046b 96bb 643c 8fbd
00000120: 251c 2abe 3f58 583e 604b c7bd e5a4 54be
00000130: 2295 253e c1b0 3a3e f2e5 373e 6b3b a8bd
00000140: e8c7 6b3e dc98 763e 8a2b 663d 5615 debb
00000150: cc7f 83be 800d 553d 2049 203e 7eec 063e
00000160: 2359 adbd 17a3 053b e744 4b3d ed74 b13b
00000170: ba28 9a3d 0adc 11be 6026 b5bd be9f 5fbe
00000180: 7a6f 2b3e a8fb 46be ae02 2d3e edec 033e
00000190: c13e d9bd cd99 5ebe d192 b4bd c5f1 f53d
000001a0: be2d f43d e538 fbbd 5693 1d3b e102 343e
000001b0: 7afe 35be 5d5d 25be 7430 3fbe 8e7c 683e
000001c0: daa2 cc3a f726 8fbd 1a48 dfbd bc13 16be
000001d0: d8e9 b93d 993d 35be fd9e ce3d 833d f2bd
000001e0: 6f01 513b 2571 fabd e80d 6b3e 566f 34bd
000001f0: 8b28 1ebc 142a 2b3e 3b07 1dbd f836 13bd
00000200: ed99 8cbd 614c 263e 9e22 e73d 0fec 2a3e
00000210: ae25 6fbe e9bb 6abd 49c8 793d 0a9b 7f3d
00000220: a44b d0bd 47dc 943b 8efa 193e debc eb3b
00000230: 64f1 52bc 665b 1ebe 6a24 7c3d 8ba5 293e
00000240: 80a3 37be 692d 67be d066 e33d ba04 88bc
00000250: bbc4 dcbd b691 f4bb 7a12 b5bd a79d d63d
00000260: 9e25 e7bd 7d7a 413e c85e 243e 1efa c33d
00000270: daaf c2bd bca7 adbd 3b5e 4a3e eb0b 7cbd
00000280: b119 1f3e fc04 2e3e 2cc3 16be f262 643d
00000290: 67a8 fbbd 88e0 be39 796b 113e 2e16 21be
000002a0: 3421 793d d350 5e3c eca8 18be 304b b63d
000002b0: 0a43 c8bc 425c 6c3d e058 0ebe 6437 663d
000002c0: 2b88 f63d 1dfb 2f3e a0a9 233d 654a fb3c
000002d0: 9985 403e 1e4f 17be cd02 643c f54c d2bc
000002e0: 6620 00bd 3926 dcbb f5fa 1c3e 92c9 e9bd
000002f0: 01f6 6abc 74ca 6b3e 8f00 153e 22ff 113e
00000300: af7a e2bd 7622 5cbe 54cf d7bd 67de 60be
00000310: 7219 3d3e 784e 653e 8e1d 053e 3985 36bc
00000320: 722b 82bc c538 a83c 74cd 173e 8800 0bbe
00000330: 7093 85bd 23f6 4abd 67d6 26be 085d b03d
00000340: c8c9 32be fda6 83bc 4371 da3c 812d 483d
00000350: ecf9 92bd 5950 f1bd c95b 4f3e f365 213d
00000360: f045 2e3e 054c 103e ea84 dfbd 0e31 39bd
00000370: 54db 5c3e cc1b c8bc 3d38 303e 7e9b 6bbd
00000380: bb3f f33d d8ef 673d b34e abbd d146 633c
00000390: 6a72 14be 89af 09be c4fa 143e 9333 d3bd
000003a0: 9276 42be 0b08 733d eb69 2ebe f988 023e
000003b0: 6ed1 9d3c 7b34 e03d d420 613e a353 923b
000003c0: b105 06be a02d 0cbe 4e04 ba3d 47e1 973d
000003d0: fd9c 74bc 2640 ecbd 64ba 1cbe 1c9a 99bd
000003e0: 7fbd f33d f3be a93c 3ce1 11be 8db0 68be
000003f0: 9097 cb3d fc81 09be a8f8 b63d 2940 11be
0.14909944 -0.23669031 0.13112937 0.14411297 0.20173895 -0.23134917 -0.07188247 0.015656501
-0.1051876 -0.13605146 0.031814683 -0.13289234 0.18205313 0.08661771 -0.024018476 -0.18678232
0.14005193 -0.08293267 0.13882497 -0.102647774 -0.06051996 -0.107740626 -0.12929973 -0.13451032
0.034087203 -0.06620132 0.19544029 0.23361196 -0.15250266 -0.15671624 -0.21102369 -0.112740494
-0.11506595 0.20077962 -0.2122463 -0.105264045 0.11534186 -0.23621678 0.2348196 -0.14560372
0.04368805 0.0075798808 -0.10617712 0.020045994 -0.1661893 -0.18790132 -0.19570899 -0.13103403
0.05793872 -0.20710048 -0.0008055324 -0.0015733318 0.20682947 0.0665079 0.21329544 0.070109725
0.19319478 -0.09594749 -0.16324133 -0.11960822 0.106407925 -0.017049031 0.17419966 0.06787981
-0.16095282 0.1453612 -0.098712504 0.16770871 -0.14107141 0.07817079 -0.004590394 -0.069939405
-0.16612299 0.21127413 -0.097311735 -0.20766027 0.16170171 0.18231489 0.17958811 -0.08214458
0.23025477 0.24081749 0.056193866 -0.006777446 -0.2568344 0.052014828 0.15652895 0.13176152
-0.08464267 0.0020391399 0.049626257 0.00541555 0.07527299 -0.14244094 -0.0884521 -0.2183828
0.16741744 -0.19431937 0.16895553 0.12883349 -0.106076725 -0.21738358 -0.088170655 0.120090045
0.11922787 -0.12266711 0.0024044118 0.17579223 -0.17772856 -0.16148897 -0.18670827 0.22703764
0.0015612498 -0.06989854 -0.10902424 -0.14655966 0.09077805 -0.17699279 0.10088918 -0.11828139
0.0031891724 -0.12228612 0.22954524 -0.04405149 -0.009653221 0.1671527 -0.038336974 -0.035941094
-0.068652965 0.16240074 0.112858996 0.16691612 -0.23354217 -0.05730811 0.060982022 0.062403716
-0.10170677 0.0045428607 0.15036985 0.0071941456 -0.012874935 -0.15464553 0.061558165 0.16567056
-0.17933464 -0.22575916 0.11103594 -0.016603816 -0.10779711 -0.007463659 -0.08841415 0.104792885
-0.11286472 0.18894382 0.16051781 0.095691904 -0.09506197 -0.084792584 0.19762509 -0.061534803
0.15537144 0.16994089 -0.1472289 0.055758424 -0.122879796 0.00036406913 0.14201154 -0.15731117
0.06082268 0.013569075 -0.14908189 0.0890106 -0.02444603 0.05770517 -0.1390109 0.05620517
0.12037691 0.17185636 0.03995669 0.030675123 0.18800963 -0.14776275 0.013916683 -0.025671462
-0.031280898 -0.0067184237 0.15330108 -0.114153996 -0.014340878 0.23026448 0.14550994 0.14257482
-0.11058556 -0.21497521 -0.105375916 -0.2195984 0.18466738 0.22393215 0.12999555 -0.011140161
-0.015889857 0.020534882 0.14824468 -0.13574421 -0.06522262 -0.04955114 -0.16292726 0.08611494
-0.17459786 -0.016070837 0.026665336 0.04887152 -0.07176575 -0.11782903 0.20249857 0.039403867
0.17018867 0.14091499 -0.10914023 -0.045212798 0.21568042 -0.024427317 0.17208953 -0.057521336
0.1187739 0.056625217 -0.0836462 0.013871864 -0.1449677 -0.13445868 0.14548784 -0.103125714
-0.18990543 0.059333842 -0.17032592 0.12747563 0.019264903 0.1094751 0.21985179 0.0044655367
-0.13088109 -0.1368928 0.09082852 0.07416015 -0.014930007 -0.11535673 -0.15305477 -0.07500097
0.11901378 0.020720934 -0.14246076 -0.22723599 0.09941018 -0.13428491 0.08934146 -0.14184631

arith.constant5 f4 [1, 32, 64]
00000000: 0000 0000 0000 0000 0000 0000 0000 0000
00000010: 0000 0000 0000 0000 0000 0000 0000 0000
00000020: 0000 0000 0000 0000 0000 0000 0000 0000
00000030: 0000 0000 0000 0000 0000 0000 0000 0000
00000040: 0000 0000 0000 0000 0000 0000 0000 0000
00000050: 0000 0000 0000 0000 0000 0000 0000 0000
00000060: 0000 0000 0000 0000 0000 0000 0000 0000
00000070: 0000 0000 0000 0000 0000 0000 0000 0000
00000080: 0000 0000 0000 0000 0000 0000 0000 0000
00000090: 0000 0000 0000 0000 0000 0000 0000 0000
000000a0: 0000 0000 0000 0000 0000 0000 0000 0000
000000b0: 0000 0000 0000 0000 0000 0000 0000 0000
000000c0: 0000 0000 0000 0000 0000 0000 0000 0000
000000d0: 0000 0000 0000 0000 0000 0000 0000 0000
000000e0: 0000 0000 0000 0000 0000 0000 0000 0000
000000f0: 0000 0000 0000 0000 0000 0000 0000 0000
00000100: 0000 0000 0000 0000 0000 0000 0000 0000
00000110: 0000 0000 0000 0000 0000 0000 0000 0000
00000120: 0000 0000 0000 0000 0000 0000 0000 0000
00000130: 0000 0000 0000 0000 0000 0000 0000 0000
00000140: 0000 0000 0000 0000 0000 0000 0000 0000
00000150: 0000 0000 0000 0000 0000 0000 0000 0000
00000160: 0000 0000 0000 0000 0000 0000 0000 0000
00000170: 0000 0000 0000 0000 0000 0000 0000 0000
00000180: 0000 0000 0000 0000 0000 0000 0000 0000
00000190: 0000 0000 0000 0000 0000 0000 0000 0000
000001a0: 0000 0000 0000 0000 0000 0000 0000 0000
000001b0: 0000 0000 0000 0000 0000 0000 0000 0000
000001c0: 0000 0000 0000 0000 0000 0000 0000 0000
000001d0: 0000 0000 0000 0000 0000 0000 0000 0000
000001e0: 0000 0000 0000 0000 0000 0000 0000 0000
000001f0: 0000 0000 0000 0000 0000 0000 0000 0000
00000200: 0000 0000 0000 0000 0000 0000 0000 0000
00000210: 0000 0000 0000 0000 0000 0000 0000 0000
00000220: 0000 0000 0000 0000 0000 0000 0000 0000
00000230: 0000 0000 0000 0000 0000 0000 0000 0000
00000240: 0000 0000 0000 0000 0000 0000 0000 0000
00000250: 0000 0000 0000 0000 0000 0000 0000 0000
00000260: 0000 0000 0000 0000 0000 0000 0000 0000
00000270: 0000 0000 0000 0000 0000 0000 0000 0000
00000280: 0000 0000 0000 0000 0000 0000 0000 0000
00000290: 0000 0000 0000 0000 0000 0000 0000 0000
000002a0: 0000 0000 0000 0000 0000 0000 0000 0000
000002b0: 0000 0000 0000 0000 0000 0000 0000 0000
000002c0: 0000 0000 0000 0000 0000 0000 0000 0000
000002d0: 0000 0000 0000 0000 0000 0000 0000 0000
000002e0: 0000 0000 0000 0000 0000 0000 0000 0000
000002f0: 0000 0000 0000 0000 0000 0000 0000 0000
00000300: 0000 0000 0000 0000 0000 0000 0000 0000
00000310: 0000 0000 0000 0000 0000 0000 0000 0000
00000320: 0000 0000 0000 0000 0000 0000 0000 0000
00000330: 0000 0000 0000 0000 0000 0000 0000 0000
00000340: 0000 0000 0000 0000 0000 0000 0000 0000
00000350: 0000 0000 0000 0000 0000 0000 0000 0000
00000360: 0000 0000 0000 0000 0000 0000 0000 0000
00000370: 0000 0000 0000 0000 0000 0000 0000 0000
00000380: 0000 0000 0000 0000 0000 0000 0000 0000
00000390: 0000 0000 0000 0000 0000 0000 0000 0000
000003a0: 0000 0000 0000 0000 0000 0000 0000 0000
000003b0: 0000 0000 0000 0000 0000 0000 0000 0000
000003c0: 0000 0000 0000 0000 0000 0000 0000 0000
000003d0: 0000 0000 0000 0000 0000 0000 0000 0000
000003e0: 0000 0000 0000 0000 0000 0000 0000 0000
000003f0: 0000 0000 0000 0000 0000 0000 0000 0000
0.0 0.0 0.0 0.0 0.0 0.0 0.0 0.0
0.0 0.0 0.0 0.0 0.0 0.0 0.0 0.0
0.0 0.0 0.0 0.0 0.0 0.0 0.0 0.0
0.0 0.0 0.0 0.0 0.0 0.0 0.0 0.0
0.0 0.0 0.0 0.0 0.0 0.0 0.0 0.0
0.0 0.0 0.0 0.0 0.0 0.0 0.0 0.0
0.0 0.0 0.0 0.0 0.0 0.0 0.0 0.0
0.0 0.0 0.0 0.0 0.0 0.0 0.0 0.0
0.0 0.0 0.0 0.0 0.0 0.0 0.0 0.0
0.0 0.0 0.0 0.0 0.0 0.0 0.0 0.0
0.0 0.0 0.0 0.0 0.0 0.0 0.0 0.0
0.0 0.0 0.0 0.0 0.0 0.0 0.0 0.0
0.0 0.0 0.0 0.0 0.0 0.0 0.0 0.0
0.0 0.0 0.0 0.0 0.0 0.0 0.0 0.0
0.0 0.0 0.0 0.0 0.0 0.0 0.0 0.0
0.0 0.0 0.0 0.0 0.0 0.0 0.0 0.0
0.0 0.0 0.0 0.0 0.0 0.0 0.0 0.0
0.0 0.0 0.0 0.0 0.0 0.0 0.0 0.0
0.0 0.0 0.0 0.0 0.0 0.0 0.0 0.0
0.0 0.0 0.0 0.0 0.0 0.0 0.0 0.0
0.0 0.0 0.0 0.0 0.0 0.0 0.0 0.0
0.0 0.0 0.0 0.0 0.0 0.0 0.0 0.0
0.0 0.0 0.0 0.0 0.0 0.0 0.0 0.0
0.0 0.0 0.0 0.0 0.0 0.0 0.0 0.0
0.0 0.0 0.0 0.0 0.0 0.0 0.0 0.0
0.0 0.0 0.0 0.0 0.0 0.0 0.0 0.0
0.0 0.0 0.0 0.0 0.0 0.0 0.0 0.0
0.0 0.0 0.0 0.0 0.0 0.0 0.0 0.0
0.0 0.0 0.0 0.0 0.0 0.0 0.0 0.0
0.0 0.0 0.0 0.0 0.0 0.0 0.0 0.0
0.0 0.0 0.0 0.0 0.0 0.0 0.0 0.0
0.0 0.0 0.0 0.0 0.0 0.0 0.0 0.0

arith.constant6 f4 [386, 16]
00000000: 0632 84bd 40c4 393d 2d07 723c 4e88 e23d
00000010: f69d 86bd 7a5f 61bd 3576 68bd 4654 923e
00000020: b06b 04bd fe56 ce3d 1da7 9cbd 77cc 7ebd
00000030: fe4a 57bc caee 673d 6d83 343d 2f2e 33bd
00000040: a03a 203b 636a 22bd 7722 4a3d 2826 18bc
00000050: 68d8 eabb d0ef 4d3b 9d4c 3f3d 50ed c8bb
00000060: 1d60 42bd 3afb abbc 8680 d13c 4699 c23c
00000070: 00c4 cc3a 466a a43c b727 3dbd 32fb ec3c
00000080: b26c 90bc ad58 f7bc c4a4 d83c 85fe c2bc
00000090: 87f0 633d c9f0 21bc 78e4 66bd 6fd4 b2bc
000000a0: de84 cdbd 3a39 4bbd aa74 e1bc 435e 83bd
000000b0: 7ae1 b63b 47fb 643d 20d8 d5bd e579 cbbc
000000c0: b9bb 5b3d 2f11 9dbc ae43 78bd 1d82 d03c
000000d0: 7fa4 733a 6931 083d 146f af3b 4656 e73c
000000e0: 2d85 cfbb dad7 4abb 217d 603c be3b dcbc
000000f0: d1d5 31bd 17e7 d23c 1e0c e33c 577f 8fbd
00000100: bf6a a9bd d3f4 c23d 39a6 5f3d edaa 91bd
00000110: 4b45 a43d 19a9 5bbd 8569 c53c 003e 773d
00000120: 8f49 f0bd 1619 58bd d49a ec3c 9d78 20bd
00000130: 31e9 9d3d 5e27 d8bd 8038 e7bd d3d5 e23d
00000140: 7dcf ecbc 90c5 363d e796 d73b b4bf 213d
00000150: 661e 183d 0768 4a3d 3c42 d43c b193 753d
00000160: 28ba f23c 5cb3 3a3c edff 54bd f31f 03bd
00000170: 9298 8ebb 35ba 523b f42a 833d 7abc 173c
00000180: ebd8 84bd 1e10 e43d 4757 b33d 8d0d b6bd
00000190: 170f b43d 3b68 d9bd 9f23 f33c fbe3 df3d
000001a0: 3a1b 39bd 8ad9 1abd c84e 8c3c 4c35 a2bd
000001b0: 0012 2f3d a617 30bd 6352 d6bc 9dac 373d
000001c0: 6718 ee3d a0a4 84bd c4c7 20bd e0d1 623d
000001d0: 59c5 d8bd baa6 0a3e e27c eebd 5cfc c9bd
000001e0: 9a70 953d ebfe 603d a671 96bd ebac 453d
000001f0: afe3 a9bd 53b9 943d 3d7a 6439 5927 fcbd
00000200: b5d9 513d 6ef5 acbd 3582 22bd c9d7 c63d
00000210: 289f fcbc 4839 9b3d 34cb 37bd e090 29bd
00000220: 7e1e 773d 3bdb 7abb 99e5 efbd 16e3 cf3d
00000230: 7836 c2bd 4108 9e3c 08b3 86bc c6c6 aebd
00000240: 4b34 9a3d 5fd9 19bd 8128 abbd 1248 023e
00000250: f85d 11bd 21e5 b03d f3d3 f8bd 0cd6 3abb
00000260: 3bc8 dd3c 6eeb cc3d f519 42bd e873 383d
00000270: f23d afbd 568c 9d3d b13d c03d aff4 b9bd
00000280: 0ffd 153e 9e6e a4bd e649 83bd d549 183e
00000290: 9826 9ebd 96c4 703d 7665 c5bd f1af eebc
000002a0: b959 ce3d 67db 7e3d f675 c4bd 7ed3 ec3d
000002b0: 8bd8 09be 032d 613d 0c0a 2f3d 6182 eebd
000002c0: b013 973d 7366 04bd 7fb5 57bd d5c9 0e3d
000002d0: f246 a5bd 521f 733d 100c 7d3c f95e b43b
000002e0: 5777 37bc 4b3a 563d 7551 50bd 616d 733c
000002f0: 5099 81bd f0da 4a3c 77ba c53d aebf a83b
00000300: 4449 81bd a488 2f3d 54e0 9e3d 7f02 3dbb
00000310: f7d9 94bc 0d65 d1bb 6a2a 113c 8465 173d
00000320: 1795 2dbd 92fb 17bd 1a87 0abc bfb1 0fbc
00000330: 7dea 523d fb42 3ebd 3173 3bbd 7e96 733d
00000340: f98e ddbb 4076 993c 0288 0d3c df9c df3c
00000350: 2d36 a63c 637b 24ba 5c41 a6bd 9e29 a9bc
00000360: d19c bcbc 9b3d 87bd de11 f1bc fe41 abbc
00000370: 2ce7 05bc ae8f 1a3d cf34 e8bc 5e0f f93b
00000380: 41fe 10be b78a 063e e025 d13d 6b35 dabd
00000390: dca8 f23d f56e babd 515b 863d 2608 ca3d
000003a0: 2821 fdbd 23cd d4bc 6296 153e 148a f1bd
000003b0: affa ad3d 5f66 e4bd e36d 22bd 51b7 893d
000003c0: 2b3a 21be f46c 9b3d e7ab 9d3d 6042 c9bd
000003d0: 7a5d f43d 0dc8 e1bd 361d e93d 2cff bc3d
000003e0: 8c89 fdbd f495 13bd 19ba c93d b13f 14be
000003f0: 8e4b de3d 88e5 e8bd b7fd 85bc 2e04 1e3e
-0.06454854 0.045353174 0.014772219 0.11061154 -0.065730974 -0.055022694 -0.056753356 0.2857992
-0.03232926 0.10075186 -0.07649062 -0.06220671 -0.013140438 0.05662421 0.04407065 -0.043745216
0.0024449006 -0.03965224 0.049349274 -0.009286441 -0.007166911 0.0031423457 0.046703923 -0.0061318055
-0.047454942 -0.020993818 0.02557398 0.023754727 0.0015622377 0.020070206 -0.046180453 0.028928373
-0.017629955 -0.030193651 0.026445754 -0.023803005 0.055649307 -0.009884068 -0.05637023 -0.021829812
-0.10035108 -0.049615122 -0.02752145 -0.06414463 0.005581078 0.0559037 -0.10441613 -0.024838397
0.053645823 -0.019173233 -0.06061142 0.025452668 0.0009294226 0.033250246 0.0053538177 0.02823938
-0.0063330145 -0.0030951411 0.013701708 -0.026883956 -0.0434168 0.025744958 0.027715739 -0.0700671
-0.08272313 0.09519353 0.05460188 -0.0711268 0.08021029 -0.05362806 0.024098167 0.060361862
-0.1173278 -0.0527583 0.028882422 -0.039177526 0.07710493 -0.10554384 -0.112900734 0.1107594
-0.028907532 0.044622004 0.0065792683 0.039489463 0.037138365 0.049415614 0.02591049 0.059955303
0.029629782 0.011395302 -0.052001882 -0.03201289 -0.004351684 0.0032154445 0.06404677 0.009261245
-0.06486686 0.111358866 0.08756881 -0.08889303 0.08791941 -0.106155835 0.029680071 0.10932156
-0.04519198 -0.037805118 0.01712741 -0.07920322 0.042741776 -0.042991303 -0.026162332 0.04484235
0.11625748 -0.06476712 -0.03925301 0.055375934 -0.10584516 0.13540164 -0.11644913 -0.09862587
0.07296868 0.05493061 -0.073458955 0.04826061 -0.0829538 0.0726191 0.00021789312 -0.123121925
0.051233012 -0.084452495 -0.039674956 0.097091265 -0.03083761 0.07579285 -0.044871524 -0.04139793
0.060331814 -0.0038277644 -0.11713714 0.10150735 -0.09483045 0.019291045 -0.01644279 -0.08534007
0.07529505 -0.037560817 -0.08357335 0.12722805 -0.035490006 0.08637453 -0.12149801 -0.002850893
0.027073016 0.10005842 -0.047388036 0.04503241 -0.08556737 0.076927826 0.09386767 -0.09079873
0.14647315 -0.08028911 -0.064105794 0.14871915 -0.07722205 0.05878123 -0.09638493 -0.02913663
0.10075707 0.062220957 -0.09592812 0.115637764 -0.13461511 0.054974567 0.04273419 -0.116459616
0.07376802 -0.032324266 -0.052663323 0.03486045 -0.08070172 0.05935604 0.01544477 0.0055044857
-0.011197886 0.052301686 -0.050858933 0.014857621 -0.0632807 0.0123813 0.09654706 0.005149803
-0.063128024 0.04285492 0.07757631 -0.00288406 -0.01817034 -0.00639022 0.00886021 0.036962047
-0.04237851 -0.03710515 -0.008455062 -0.008770405 0.051493157 -0.046450596 -0.045764152 0.059469692
-0.0067614284 0.018733144 0.008638384 0.027296482 0.020289505 -0.00062744896 -0.08117935 -0.020649727
-0.023023995 -0.06603547 -0.029427465 -0.020905491 -0.008172791 0.03773468 -0.028345494 0.007600709
-0.1415949 0.13138853 0.10212302 -0.1065472 0.118486136 -0.091031946 0.06560386 0.098648354
-0.1235984 -0.025976723 0.14608148 -0.117939144 0.0849508 -0.11152338 -0.039655577 0.06724418
-0.15744846 0.075891405 0.076988034 -0.09827113 0.11931892 -0.11024485 0.11382525 0.09228358
-0.123797506 -0.03603168 0.098499484 -0.14477421 0.10854255 -0.113719046 -0.016356332 0.15431282

arith.constant7 f4 [24]
00000000: ebe0 003d 7b1e b43b b22b 92bc 270d a83c
00000010: f0c1 df3c 2123 3c3b 6720 e13c b975 2a3c
00000020: 7258 3ebc 9184 003d d2a1 ce3c cf66 163d
00000030: 3adc d73c 4068 a6bc 9aed 003d e229 913c
00000040: 69ed 9cbb f28e 13bc 7bb4 93bb 7bd1 043c
00000050: 6c32 f4bc 07ac a23c 8f7c aebc 5f1a 8c3c
0.0314645 0.0054967976 -0.017843101 0.020514084 0.027314156 0.0028707462 0.027481271 0.010404044
-0.011617767 0.031376425 0.025223646 0.03671914 0.02635013 -0.020313382 0.031476595 0.017720167
-0.0047890437 -0.009006249 -0.004507599 0.008106585 -0.0298092 0.01985742 -0.021299629 0.017102418

arith.constant10 f4 [32, 64]
00000000: 0000 0000 0000 0000 0000 0000 0000 0000
00000010: 0000 0000 0000 0000 0000 0000 0000 0000
00000020: 0000 0000 0000 0000 0000 0000 0000 0000
00000030: 0000 0000 0000 0000 0000 0000 0000 0000
00000040: 0000 0000 0000 0000 0000 0000 0000 0000
00000050: 0000 0000 0000 0000 0000 0000 0000 0000
00000060: 0000 0000 0000 0000 0000 0000 0000 0000
00000070: 0000 0000 0000 0000 0000 0000 0000 0000
00000080: 0000 0000 0000 0000 0000 0000 0000 0000
00000090: 0000 0000 0000 0000 0000 0000 0000 0000
000000a0: 0000 0000 0000 0000 0000 0000 0000 0000
000000b0: 0000 0000 0000 0000 0000 0000 0000 0000
000000c0: 0000 0000 0000 0000 0000 0000 0000 0000
000000d0: 0000 0000 0000 0000 0000 0000 0000 0000
000000e0: 0000 0000 0000 0000 0000 0000 0000 0000
000000f0: 0000 0000 0000 0000 0000 0000 0000 0000
00000100: 0000 0000 0000 0000 0000 0000 0000 0000
00000110: 0000 0000 0000 0000 0000 0000 0000 0000
00000120: 0000 0000 0000 0000 0000 0000 0000 0000
00000130: 0000 0000 0000 0000 0000 0000 0000 0000
00000140: 0000 0000 0000 0000 0000 0000 0000 0000
00000150: 0000 0000 0000 0000 0000 0000 0000 0000
00000160: 0000 0000 0000 0000 0000 0000 0000 0000
00000170: 0000 0000 0000 0000 0000 0000 0000 0000
00000180: 0000 0000 0000 0000 0000 0000 0000 0000
00000190: 0000 0000 0000 0000 0000 0000 0000 0000
000001a0: 0000 0000 0000 0000 0000 0000 0000 0000
000001b0: 0000 0000 0000 0000 0000 0000 0000 0000
000001c0: 0000 0000 0000 0000 0000 0000 0000 0000
000001d0: 0000 0000 0000 0000 0000 0000 0000 0000
000001e0: 0000 0000 0000 0000 0000 0000 0000 0000
000001f0: 0000 0000 0000 0000 0000 0000 0000 0000
00000200: 0000 0000 0000 0000 0000 0000 0000 0000
00000210: 0000 0000 0000 0000 0000 0000 0000 0000
00000220: 0000 0000 0000 0000 0000 0000 0000 0000
00000230: 0000 0000 0000 0000 0000 0000 0000 0000
00000240: 0000 0000 0000 0000 0000 0000 0000 0000
00000250: 0000 0000 0000 0000 0000 0000 0000 0000
00000260: 0000 0000 0000 0000 0000 0000 0000 0000
00000270: 0000 0000 0000 0000 0000 0000 0000 0000
00000280: 0000 0000 0000 0000 0000 0000 0000 0000
00000290: 0000 0000 0000 0000 0000 0000 0000 0000
000002a0: 0000 0000 0000 0000 0000 0000 0000 0000
000002b0: 0000 0000 0000 0000 0000 0000 0000 0000
000002c0: 0000 0000 0000 0000 0000 0000 0000 0000
000002d0: 0000 0000 0000 0000 0000 0000 0000 0000
000002e0: 0000 0000 0000 0000 0000 0000 0000 0000
000002f0: 0000 0000 0000 0000 0000 0000 0000 0000
00000300: 0000 0000 0000 0000 0000 0000 0000 0000
00000310: 0000 0000 0000 0000 0000 0000 0000 0000
00000320: 0000 0000 0000 0000 0000 0000 0000 0000
00000330: 0000 0000 0000 0000 0000 0000 0000 0000
00000340: 0000 0000 0000 0000 0000 0000 0000 0000
00000350: 0000 0000 0000 0000 0000 0000 0000 0000
00000360: 0000 0000 0000 0000 0000 0000 0000 0000
00000370: 0000 0000 0000 0000 0000 0000 0000 0000
00000380: 0000 0000 0000 0000 0000 0000 0000 0000
00000390: 0000 0000 0000 0000 0000 0000 0000 0000
000003a0: 0000 0000 0000 0000 0000 0000 0000 0000
000003b0: 0000 0000 0000 0000 0000 0000 0000 0000
000003c0: 0000 0000 0000 0000 0000 0000 0000 0000
000003d0: 0000 0000 0000 0000 0000 0000 0000 0000
000003e0: 0000 0000 0000 0000 0000 0000 0000 0000
000003f0: 0000 0000 0000 0000 0000 0000 0000 0000
0.0 0.0 0.0 0.0 0.0 0.0 0.0 0.0
0.0 0.0 0.0 0.0 0.0 0.0 0.0 0.0
0.0 0.0 0.0 0.0 0.0 0.0 0.0 0.0
0.0 0.0 0.0 0.0 0.0 0.0 0.0 0.0
0.0 0.0 0.0 0.0 0.0 0.0 0.0 0.0
0.0 0.0 0.0 0.0 0.0 0.0 0.0 0.0
0.0 0.0 0.0 0.0 0.0 0.0 0.0 0.0
0.0 0.0 0.0 0.0 0.0 0.0 0.0 0.0
0.0 0.0 0.0 0.0 0.0 0.0 0.0 0.0
0.0 0.0 0.0 0.0 0.0 0.0 0.0 0.0
0.0 0.0 0.0 0.0 0.0 0.0 0.0 0.0
0.0 0.0 0.0 0.0 0.0 0.0 0.0 0.0
0.0 0.0 0.0 0.0 0.0 0.0 0.0 0.0
0.0 0.0 0.0 0.0 0.0 0.0 0.0 0.0
0.0 0.0 0.0 0.0 0.0 0.0 0.0 0.0
0.0 0.0 0.0 0.0 0.0 0.0 0.0 0.0
0.0 0.0 0.0 0.0 0.0 0.0 0.0 0.0
0.0 0.0 0.0 0.0 0.0 0.0 0.0 0.0
0.0 0.0 0.0 0.0 0.0 0.0 0.0 0.0
0.0 0.0 0.0 0.0 0.0 0.0 0.0 0.0
0.0 0.0 0.0 0.0 0.0 0.0 0.0 0.0
0.0 0.0 0.0 0.0 0.0 0.0 0.0 0.0
0.0 0.0 0.0 0.0 0.0 0.0 0.0 0.0
0.0 0.0 0.0 0.0 0.0 0.0 0.0 0.0
0.0 0.0 0.0 0.0 0.0 0.0 0.0 0.0
0.0 0.0 0.0 0.0 0.0 0.0 0.0 0.0
0.0 0.0 0.0 0.0 0.0 0.0 0.0 0.0
0.0 0.0 0.0 0.0 0.0 0.0 0.0 0.0
0.0 0.0 0.0 0.0 0.0 0.0 0.0 0.0
0.0 0.0 0.0 0.0 0.0 0.0 0.0 0.0
0.0 0.0 0.0 0.0 0.0 0.0 0.0 0.0
0.0 0.0 0.0 0.0 0.0 0.0 0.0 0.0

arith.constant17 f4 [256, 16]
00000000: a635 813d 5817 8f3c 8c25 383e 216c 81bd
00000010: 3a73 0fbc a276 073c 177c cebd e6a6 89bd
00000020: 3a43 b1bd 910b 21bc 84a1 1f3d 51c6 25be
00000030: 7da2 123e b515 18bd e57a 513a f0f8 1a3e
00000040: 7fd7 313d 9783 a63d 28ca fcbd 55c5 e4b9
00000050: 571e dc3d 1e17 8dbd f5e8 94bd aa7c fdbd
00000060: 9709 e5bc c08e ba3d 70d4 123e 4702 933d
00000070: 3632 c2bc 506a 903c acf8 15bd 0533 23bd
00000080: f5b9 b03d 66c5 a3bd 1414 2e3d 4f02 56bd
00000090: 6bbe dbbd 1710 beb9 03a0 d03d 8821 b33b
000000a0: 064d fcbd 46d3 debd 19b9 2d3c 3abb d33d
000000b0: 3602 d3bd 67b7 22bd bf07 9abd 6f65 1e3d
000000c0: 8c3e bebd 26e8 5b3d 958f eabb 0a67 a43d
000000d0: 9eae 0e3e 26bf ef3d 49da aa3d d960 2cba
000000e0: 174f 92bd 9626 9abd 5c94 043d 23f0 a73c
000000f0: d347 8e3c 5901 e7bd dbc8 28bd 7f95 25bd
00000100: 4800 7dbd 1f04 35be 3cf9 cc3d d9d8 dcbd
00000110: 09a0 083e 4bf9 ecbd 5f30 b73d 3be2 37bc
00000120: f990 8ebc 31d4 47bd 4de7 b93d 4846 75bd
00000130: 38d3 3e3d aafe d4bd dff0 bebd ab84 04be
00000140: 17ca 01be 7c11 dfbd 4ebc abbd 9d8e 13bc
00000150: 9b22 a53c e5c7 4ebd 2fd7 99bd dd49 3c3c
00000160: 1d5d b3bd 445f 4ebd 343d 153e 6f3f 863d
00000170: b372 fcbc b9aa 513d 41a1 56bd 2443 11be
00000180: 7ced b9bd ebb3 8ebd b617 723d 7244 be3d
00000190: 3a75 cebd cfad 223b bb67 b13c 4e2f 153c
000001a0: baf5 793d 1ef4 9abd 5762 843d f14d bebd
000001b0: 9b19 dc3c e806 3abe 79ba 04be 2590 2d39
000001c0: d818 183e 56ea 67be 1299 d4bd 5b0a b1bd
000001d0: 91b1 36be 749f dd3d 83ff 00be 6502 09be
000001e0: 48cc 323e f44f 6e3d d882 953d 48ea febc
000001f0: 6344 19be c252 5abd 38ca 193e ce0e 42be
00000200: 7c04 82bd 5208 093d deb2 d73d 3b75 c8bc
00000210: 8747 9bbc 3acf 86bd d543 bbbd 169b f63c
00000220: a21b e8bd 4c04 debd f986 e13d 6e11 6c3d
00000230: c830 27bd e9e8 073d 8ed5 513c 7832 473d
00000240: e62c 833d 7738 103e eccf df3d b519 ab3d
00000250: a2a6 3abd b0f3 32bd b8e1 8abd dbd1 7fbc
00000260: 995d f33c b594 b7bd 0fa1 b3bd 19ca 35bd
00000270: eb4f 97bd 27f9 25bc d6ba 013e 9255 b83b
00000280: fcdc 7b3d 05fa d33c 4306 8abd 010c e8bd
00000290: ac41 32bd eb46 96bd 9dbb 2b3d caf9 bb3d
000002a0: 5c45 f7bd 2a86 b0bc 0cf9 d8bd e18f d2bd
000002b0: b656 52bd 1a03 d93c 9e85 c33c 3413 a93d
000002c0: 24f3 963d a480 2d3e 419e 903c dd90 efbc
000002d0: 998c 6a3b 26ef aabd 9ba9 03ba ec87 d13d
000002e0: 1675 703d ab92 3b3d 054c fd3d 32e7 0abe
000002f0: 1765 47bb e0fe 0fbe 4382 31be e6f1 1f3e
00000300: 5fbd da3c 3528 d83d 3879 3bbd 8dab 663d
00000310: 2ea8 033b 9d45 22bc cb28 753d 6fab 3a3d
00000320: 36be d53d ab15 9f3d 88dd a5bc aa85 82bd
00000330: 9e52 b13d 5186 04bc 5114 743d 6d6c c43a
00000340: b692 1fbe 0093 ce3d 6893 a93d 25cb 1abe
00000350: 7454 503c 8bcc e23d 9702 be3c 5ae8 06be
00000360: b2af c93c c5f5 42be 4d68 97bd 5fbd 05be
00000370: 269c 68bd e97b f03b 7be8 1fbe c698 093e
00000380: bafc da3d dd47 edbd e82b f4bb bd61 20be
00000390: 66c6 fb3d 9222 083d f1da 783d 9174 ca3d
000003a0: 8af5 0ebe 221b cf3d 6272 283d c553 a8bc
000003b0: 0c58 aebd 0763 77bc e070 a6bd c9f5 e7bd
000003c0: 9fcf 403d f3c7 acbd e474 853d 9af0 3a3d
000003d0: 8340 f73d 71a2 fbbd ba04 e1bc 5a21 4a3d
000003e0: d7b1 1dbe 671b a6bd cc34 dabd 62d1 a63d
000003f0: a911 8fbc e4b8 36be b75c e0bd 5727 46bd
0.06309061 0.017467186 0.17983073 -0.06319452 -0.0087554995 0.00826803 -0.10082262 -0.067212865
-0.086554006 -0.009829418 0.038972393 -0.16188933 0.14319797 -0.037130076 0.000799103 0.15134025
0.043418404 0.081305675 -0.12343246 -0.00043634573 0.10747974 -0.06889175 -0.072709955 -0.123772934
-0.027958674 0.09109259 0.14338851 0.07178169 -0.023705583 0.017628819 -0.036614105 -0.039843578
0.086292185 -0.07996635 0.042499617 -0.052248295 -0.10729679 -0.00036251612 0.1018677 0.0054666437
-0.123193786 -0.10880141 0.010603213 0.10338445 -0.10303156 -0.039725687 -0.07521009 0.038670953
-0.092892736 0.05368819 -0.0071582296 0.08027466 0.13933799 0.117063805 0.08342416 -0.0006575711
-0.071439914 -0.07526891 0.03236805 0.020500248 0.017368233 -0.11279554 -0.041207176 -0.040425774
-0.061767846 -0.17677353 0.10008475 -0.10783548 0.13342299 -0.11570986 0.08944773 -0.011223371
-0.017403113 -0.048786346 0.0907732 -0.05988148 0.046588153 -0.10400136 -0.09323286 -0.12941234
-0.12674747 -0.10892007 -0.08385526 -0.00900617 0.020158103 -0.050483603 -0.07511746 0.01149222
-0.08757994 -0.05038382 0.14574128 0.06555068 -0.030816412 0.051188204 -0.052399877 -0.14185768
-0.090785 -0.069679104 0.059104644 0.09290399 -0.10080953 0.0024822836 0.021655908 0.009105517
0.06102536 -0.07566093 0.06464069 -0.0929221 0.026867678 -0.18166697 -0.12961759 0.00016552264
0.14853227 -0.22647986 -0.10380758 -0.08644553 -0.17841174 0.10821429 -0.1259747 -0.1337982
0.1746074 0.058181718 0.07300347 -0.031117573 -0.14967494 -0.05330158 0.15018547 -0.1895096
-0.063485116 0.0334552 0.10532163 -0.024469962 -0.018955005 -0.06582494 -0.09143797 0.030103248
-0.113333955 -0.10840663 0.11012072 0.05763381 -0.040818006 0.033181105 0.012807263 0.048632115
0.06405048 0.1408404 0.1092833 0.083545126 -0.04556907 -0.04368943 -0.06781334 -0.015613998
0.029707717 -0.089639105 -0.08770954 -0.04438219 -0.0738829 -0.010130203 0.12668929 0.005625435
0.061490044 0.025876055 -0.067394756 -0.113304146 -0.04351966 -0.07337745 0.04192697 0.09178503
-0.12073776 -0.02154835 -0.10594377 -0.10281349 -0.051352225 0.026490737 0.023867425 0.08255616
0.07370594 0.16943604 0.017653586 -0.02924388 0.003578937 -0.08346395 -0.00050225266 0.10231003
0.05870541 0.04579417 0.12368015 -0.13564757 -0.0030425244 -0.14062071 -0.17334847 0.1561962
0.026701627 0.10554544 -0.0457699 0.056315947 0.0020089257 -0.009904292 0.059853356 0.045573648
0.104366705 0.07767805 -0.020247236 -0.06373151 0.08658336 -0.008088664 0.059589688 0.0014985927
-0.1558331 0.10086632 0.08280069 -0.15116556 0.012715448 0.1107417 0.023194594 -0.13174573
0.02461991 -0.19039066 -0.07392941 -0.1306052 -0.05678954 0.00733899 -0.15616028 0.13437185
0.10692735 -0.115859725 -0.007451523 -0.15662284 0.12293701 0.033236094 0.060755674 0.098855145
-0.13960853 0.10112597 0.04112471 -0.020547757 -0.08512887 -0.015099294 -0.08126998 -0.11326177
0.047073003 -0.08436575 0.06516436 0.04563961 0.120728515 -0.122868426 -0.027468074 0.049348213
-0.15399872 -0.08110695 -0.106546015 0.08145405 -0.017464476 -0.17843968 -0.10955184 -0.04837736

arith.constant18 f4 [256, 64]
00000000: aff6 743d a5e6 80bd f4b1 dcbb 9563 dcbd
00000010: aeae 8fbc e9a4 5a3d 2ab1 893d 5d06 a8bd
00000020: 7723 a0bd e77e 483c ccf2 143d 4bdf 913d
00000030: c388 e3bc 59b3 dbbd 5ab9 0bbe 6cbc 65bd
00000040: 2a42 403d 14b0 8a3d 693f 41bc 0d0e 023e
00000050: 8751 813c 64b3 b6bd 8d39 8e3d bbe6 173c
00000060: 4192 203e b66d 753c 4912 a73c ee75 fdbc
00000070: 0617 aa3d bab2 a8bd bce7 dfbc 6155 1dbd
00000080: 5ecf ed3d 7008 193d f76f 55bc c219 11be
00000090: c2c1 213d 40bf 123d 296d d2bd 3477 1bbd
000000a0: 5a99 b53c ef5e 09bc 05a9 c33c a577 823d
000000b0: 7308 58bd e248 153e cf6a 2d3d 93d1 88bb
000000c0: b6f3 91bd aad1 b5bc 95d2 a23d 3bbb 33bd
000000d0: 6c82 513d e53b 5b3d 7c19 2f3e 1406 a1bd
000000e0: 0b07 e3bc 3da2 9abc 9a06 ccbd 4a7e c43d
000000f0: 2220 25bd f712 7d3d 7d6e 30be 8844 203d
00000100: 5e8e 3bbd 16f3 e63c 6944 19bc 3007 2bbd
00000110: 4888 b5bd cd97 4dbd af4e 4cbd f3ab 8cbd
00000120: 4749 bc3d 1feb a53c 5263 ca3c 7813 c23d
00000130: 6c8c 9ebb 0a34 b5bd d80e 05be 2d16 83bd
00000140: a5f3 ab3d e65f 123c b96c 26bd 7522 07bd
00000150: 992f 513c ac48 42be aa11 a73d 3d59 4f3b
00000160: 0881 55bd 5701 d0bc 9d69 8d3d a99a 323d
00000170: a5cf 933d 51d8 ab3b fca2 1ebd fa0a 173e
00000180: 725a 7f3c 9d1d 1e3c 8978 063d 4a3c 31bd
00000190: 8e0b 7cbd 6a81 d5bc cb25 21bc 780b e8bc
000001a0: b208 bfbd e20b a8bd 5dea 34bd fa26 d9bc
000001b0: 6114 6bbc cab4 cbbc 328a 5f3c 9ab7 f93d
000001c0: 2822 f83b 813e 9cbd 1716 81bd ef95 8dbc
000001d0: 7fd6 613d 04c2 bb3d a013 373d 8b65 863d
000001e0: 776a d1bc 4689 d7bd 9cb1 623c aa4a bdbd
000001f0: 1c94 533c 8914 b73d 2aed f33d 7205 f43c
00000200: 9546 f03c 3493 bf3c b86d 76bb 1726 9cbd
00000210: cb8c f03c 1057 95bd db18 babd 551f 45bc
00000220: 8faa d1bc 45e2 86bd 6674 063d 101e c93c
00000230: 695e 88bd 47cb 94bd 4b89 febc 883f 9a3c
00000240: f4cd c93d e80c e53d 2a14 bc3d ee75 c43d
00000250: 52e5 dabd 4521 f63d 9fb1 21bc 6c52 613d
00000260: eb1e 9fbd 3336 febb a2c5 a53d 489b 10be
00000270: 2446 4c3d 2125 22be af1e 183d 78ed 553d
00000280: 267c e0bd bd90 babd b234 debc 1feb 43bd
00000290: b696 03bd e2b0 90bd 2efa babd 6a41 aebc
000002a0: d66a a8bc fa47 8abb ba4f 8f3d 7cce 483d
000002b0: 059a 9e3b 8d47 0e3e dc4b 9dbd e493 c2bc
000002c0: 377f 2d3b 5ace 13bd cd7d 7ebc 508e d13c
000002d0: a4d9 693d 9825 1ebd 14fe 883d 28a1 853d
000002e0: f992 9f3d 1c1b 31be 0f90 5ebd 1d28 f7bd
000002f0: e1a1 33bd b781 2bbb bed0 6d3d 32e0 bd3d
00000300: 5a5a 383d b4cb 64bd c752 ae3d c690 94bd
00000310: e6cc 243d 9a90 9d3c 89d6 e6bd 0597 0dba
00000320: b735 f33c 2b71 953d 6cde b7bc 7169 563b
00000330: 9cb8 f2bd 58c4 11be ff4f 1fbe 29ba a6bd
00000340: 2a52 0139 689c ed3c 0217 e33c ac26 7b3d
00000350: fc2d 8e3d 496b 883d 6a77 473d a7f4 bd3a
00000360: d243 513d 9862 b93c 71de 033d 158b 00bc
00000370: 4406 4ebc 6e9f 3e3c 5ce5 a03d 07a8 b6bd
00000380: b752 81bd 7875 0d3d 2088 083c a4d8 c0bb
00000390: c81a a63d 377e d2bc 06b4 b33c b3c6 e6bd
000003a0: 0e95 16bd d9de 67bd b9ed 00be bf3e 7fbd
000003b0: aaed 253d 416b 1d3b a73a 543c a44d 88bd
000003c0: 55b7 c1bc 91ce e33d 8283 9dbc 7b9a 9bbc
000003d0: 519c a43c ada8 c73d e930 40bc a070 10bd
000003e0: 638c 29be 5630 3d3c c44e 933d d71f 353d
000003f0: 51eb 063c 4e9c 8a3d 803f b4bd e0ad 8a3d
0.05980557 -0.06293992 -0.006735081 -0.10761181 -0.017539348 0.053379927 0.067232445 -0.08204339
-0.078192644 0.012237287 0.03636436 0.07122668 -0.027775174 -0.10727567 -0.13644925 -0.056087896
0.0469381 0.067718655 -0.011794903 0.12700672 0.015785946 -0.08920935 0.06944571 0.009271319
0.15680791 0.01497977 0.020394461 -0.030940022 0.083051726 -0.082372144 -0.02733218 -0.0384115
0.11611818 0.037361562 -0.013027183 -0.14169982 0.039491422 0.03582692 -0.10274727 -0.037955478
0.02216785 -0.00838445 0.023884306 0.06370477 -0.052742433 0.14578584 0.04233819 -0.004175374
-0.07126562 -0.022194702 0.079503216 -0.04387973 0.05114977 0.053523917 0.17099565 -0.078624874
-0.02771332 -0.01887619 -0.09962197 0.095944 -0.040313847 0.061785664 -0.17229648 0.039127856
-0.04579007 0.028192084 -0.009354689 -0.0417549 -0.08863884 -0.050193597 -0.049879726 -0.06868734
0.09193664 0.020253716 0.024705563 0.094763696 -0.004838517 -0.08847816 -0.12993944 -0.06400714
0.08396081 0.008933997 -0.04063103 -0.032991845 0.012767696 -0.18973035 0.08157666 0.0031638884
-0.052125007 -0.025391264 0.0690491 0.043604527 0.072173394 0.005244293 -0.038729653 0.14750281
0.015585529 0.009650615 0.032829795 -0.043270387 -0.061534457 -0.026062686 -0.009835671 -0.028325781
-0.093278304 -0.082053915 -0.04416882 -0.026507843 -0.01434812 -0.02486648 0.013643788 0.12193222
0.007572431 -0.07629109 -0.063030414 -0.017283408 0.0551362 0.09167865 0.04469645 0.065623365
-0.025563462 -0.1052423 0.013836291 -0.09242757 0.01291373 0.08939464 0.1191047 0.029787753
0.029330531 0.023385622 -0.0037602019 -0.076244526 0.02936401 -0.072919965 -0.09086772 -0.012031396
-0.025594024 -0.06586126 0.03282585 0.024550468 -0.06658632 -0.072653346 -0.031071326 0.018829122
0.098537356 0.11184102 0.091835335 0.09592806 -0.10688271 0.120180644 -0.009869008 0.055010244
-0.07769569 -0.007757926 0.08094336 -0.14121735 0.04987158 -0.15834476 0.037138637 0.05222842
-0.109611794 -0.09109638 -0.027124736 -0.04783165 -0.03212615 -0.07064988 -0.09129749 -0.021271426
-0.020558756 -0.004220006 0.069976285 0.049025044 0.004840138 0.13894482 -0.07680485 -0.02375216
0.002647353 -0.036085464 -0.015532923 0.025580555 0.057092324 -0.03861007 0.066890866 0.06524879
0.07791705 -0.17295498 -0.054336604 -0.12068198 -0.04385555 -0.0026169845 0.0580604 0.092712775
0.04500804 -0.05585833 0.08511882 -0.07254176 0.04023447 0.01923399 -0.11271388 -0.0005401227
0.0296887 0.07296976 -0.022444926 0.0032716657 -0.11851618 -0.14235055 -0.1555786 -0.08140976
0.00012333007 0.029005244 0.027720932 0.061316177 0.069423646 0.06661088 0.048697866 0.0014492468
0.05109007 0.022630021 0.03219456 -0.00784566 -0.012574736 0.011634691 0.07856247 -0.089187674
-0.06314605 0.034535855 0.008333236 -0.0058852006 0.08110577 -0.02569495 0.021936428 -0.112683676
-0.036763243 -0.05660901 -0.12590684 -0.0623157 0.040509857 0.0024020227 0.012953437 -0.06655434
-0.02364699 0.11123384 -0.019227747 -0.01899456 0.020094069 0.09748969 -0.011730411 -0.035263658
-0.1655746 0.011547169 0.07192758 0.044219818 0.008234815 0.06768094 -0.08801174 0.06771445

sequential_1/bidirectional_1/backward_lstm_1/while/lstm_cell_1/add_1/ReadVariableOp f4 [256]
00000000: ce6f 053d 8d67 c73c f497 a13c 4953 0d3d
00000010: f9a0 1f3d fcac 893c 8631 133d 3cc4 243d
00000020: ae4d 153d 26b1 1d3d fc43 fb3c 5b89 b03c
00000030: 91d3 1e3d e9ea a33c 87f3 c23c f482 543c
00000040: affe 1e3d f596 273d 2c9b 1c3d 7842 f33c
00000050: 4ed8 083d 0a07 173d b1ec 063d 325e 033d
00000060: 6aff 253d 9880 b23c 1243 ce3c 1f75 0a3d
00000070: f3f1 dc3c 5202 eb3c 1757 f63c 71c6 093d
00000080: fb91 603c d6b5 6c3c 46fd 153d 2a40 d63c
00000090: caca ed3c f528 103d f2f4 e23c a54c 013d
000000a0: 9462 fb3c 7730 543d 395c 0b3d a55e 083d
000000b0: dcdd 353c bcde f33c eb95 1f3d c1d8 0e3d
000000c0: 7acc b53c 0cd7 023d ee3d 1a3d d31e 153d
000000d0: 51f9 a13c cfe5 d03c 5a5b 623c 56db 1a3d
000000e0: 933b 5f3c ae16 db3c 2b03 173d 373e ff3c
000000f0: f8a3 a43c 287a 273d f8d0 863c 20df d73c
00000100: 310e 843f 1756 823f 0ff9 803f 5434 843f
00000110: acc4 843f b792 813f 7494 843f f59c 853f
00000120: f060 843f f4d6 843f d2d9 833f bc59 833f
00000130: b263 843f c213 823f a691 813f d2ad 803f
00000140: 43c8 843f 986d 853f dd07 853f c951 833f
00000150: f0d4 833f 616f 843f 3f0b 843f 01d8 833f
00000160: 1cc7 843f bb74 823f 73b4 823f 8fbf 843f
00000170: 63bb 843f 956f 823f a90a 833f dbf6 833f
00000180: aafb 813f ba1c 813f 51ab 843f b2d6 813f
00000190: 9f0b 833f 0d98 843f d73f 843f 24ba 833f
000001a0: 7b6e 833f 6062 843f 39f1 833f 41b0 823f
000001b0: 740c 823f b1f7 813f b627 853f f0c0 843f
000001c0: e6b5 823f 97e6 833f dfbf 843f a159 843f
000001d0: 845f 803f 1c28 823f e26c 803f 1d37 833f
000001e0: ba6c 813f b2f1 833f defd 833f 10eb 843f
000001f0: 1570 823f 7eba 843f 01f5 813f 0393 823f
00000200: 8a3f 8e3c a96b 0fbc 4e93 5bbc 1101 5fba
00000210: 7773 d6bb 094f b5bb 1a51 e3bb a420 b0bb
00000220: ff86 9c3c a293 f2bc 85b4 c63b 6860 803c
00000230: 67c7 e63a 1549 52bc 8e39 08bc d5e2 54bc
00000240: 648c 75bc d87f 213d 7f11 8b3c da90 bd3c
00000250: 2c4c 4abb 1a20 2bbc 7f44 213d b78c 053d
00000260: 23cd b33b c5f7 7e3c 1aab e33c 914e 363b
00000270: 633e 0f3d 6a44 ea3b a6b4 123c 14a5 fabc
00000280: c8ca a93c e49f 80bc bacd 26bc e57a b6bb
00000290: 9224 9bbc 0d8d 68bc bbcc 0ebd 9f0f d3bc
000002a0: cad1 833b f543 03bd b8be d1b9 737f e23b
000002b0: ce99 173c 616c 703b 6174 24bd 0b55 1bbc
000002c0: 90a5 dd3c 4775 523c 1612 cb3c ac5c 2abb
000002d0: 4152 6c3c 8148 d33c c1f0 c6bc cee2 d9bc
000002e0: 5e68 f8ba a170 adbc e4cf e43b 43a9 133c
000002f0: 6645 943c 55c2 813c 8e1b 763c ac26 883c
00000300: 4454 063d ae61 cb3c 3d87 a83c 2bea 103d
00000310: 428b 203d 1bf0 8c3c b34b 173d 73c9 353d
00000320: 5fbb 163d 39c3 1f3d 726d 013d 63d1 b23c
00000330: 8385 293d e28b af3c 2e08 cc3c 2166 4e3c
00000340: 2be0 213d b341 2a3d 5f95 243d 88d0 f73c
00000350: bd9e 083d 570b 1b3d bd43 083d 00bc 013d
00000360: 4330 273d 16a4 b03c 41ca cd3c bff1 0e3d
00000370: 51ea e33c 81f8 e73c f582 ff3c 7cb9 093d
00000380: def4 633c 07fc 883c cd6a 193d 6e29 e23c
00000390: 036b f43c 62ec 0f3d b739 e23c 84a9 033d
000003a0: 6c14 003d 7fe7 633d 7427 103d c68b 093d
000003b0: 3dca 333c 717d 023d 8913 2b3d b6ac 133d
000003c0: bcba c63c 75a0 033d 2856 1b3d 836d 193d
000003d0: 3027 a03c 5aff cf3c 0ece 6d3c 9308 1c3d
000003e0: ae15 593c 7228 d63c 257c 1e3d 0569 fb3c
000003f0: c3cf a83c 7b92 2c3d bd5f 873c d5eb e23c
0.03257733 0.024341369 0.019725777 0.034503255 0.038971875 0.016806118 0.0359359 0.040226206
0.036451034 0.03849902 0.030672066 0.021549871 0.038775984 0.020009475 0.023797764 0.012970675
0.038817104 0.04091545 0.03823392 0.02969478 0.03340941 0.036871947 0.03294057 0.032072254
0.040526785 0.021789834 0.025178466 0.0338031 0.02697084 0.02868763 0.030070825 0.033636514
0.013706679 0.01444765 0.036618493 0.026153643 0.029027361 0.03519531 0.02770469 0.031567235
0.030686654 0.051804032 0.034023497 0.033293385 0.011100259 0.029769294 0.038961332 0.03487468
0.022192229 0.031943366 0.037656717 0.03640635 0.019772204 0.025500206 0.013815725 0.03780683
0.013625043 0.026744213 0.036868256 0.031157596 0.020097718 0.04088798 0.016457066 0.026351511
1.0316831 1.0182523 1.0076007 1.0328469 1.037252 1.0122899 1.0357804 1.0438524
1.0342083 1.0378098 1.0300848 1.026176 1.0342925 1.016228 1.0122573 1.0053046
1.0373615 1.042407 1.0393025 1.0259334 1.0299358 1.034649 1.0315932 1.0300294
1.0373263 1.0191873 1.0211319 1.0370959 1.0369686 1.0190302 1.0237628 1.0309709
1.0154927 1.0086892 1.0364782 1.0143645 1.0237921 1.0358902 1.0331982 1.0291181
1.0268091 1.0342522 1.030799 1.0210038 1.016005 1.0153714 1.0402744 1.037138
1.0211761 1.0304745 1.0371054 1.0339853 1.0029149 1.016849 1.0033228 1.0251194
1.0111306 1.0308135 1.0311849 1.0384235 1.0190455 1.0369413 1.0152894 1.0201114
0.017364282 -0.0087536955 -0.013401819 -0.0008506934 -0.006544526 -0.0055331034 -0.0069371583 -0.005374985
0.01910734 -0.029611412 0.006064 0.01567097 0.0017607034 -0.012834807 -0.008314503 -0.012993534
-0.014987085 0.039428562 0.016976116 0.02314036 -0.0030868156 -0.010444665 0.039371964 0.0326049
0.0054871007 0.015562003 0.027791549 0.0027817825 0.034971606 0.007149269 0.008954203 -0.030596294
0.020726576 -0.015701242 -0.010180885 -0.0055688494 -0.018938337 -0.014193785 -0.034863215 -0.025764285
0.0040228115 -0.03204723 -0.00040005683 0.006912166 0.0092529785 0.0036685693 -0.04015005 -0.009480725
0.027056485 0.012845344 0.024788897 -0.0025995178 0.014423908 0.025791408 -0.024284722 -0.026597407
-0.0018952002 -0.02117187 0.0069827903 0.009012523 0.018099498 0.015839735 0.015021218 0.016620003
0.032795206 0.02482685 0.0205723 0.03537957 0.039195307 0.017204335 0.036937427 0.04438157
0.036799785 0.03900454 0.031598516 0.021828359 0.041387092 0.021429006 0.024906244 0.012597592
0.039520424 0.041566562 0.040181514 0.030250803 0.03335451 0.03785261 0.033267725 0.03167343
0.04081751 0.021562617 0.025120856 0.034898516 0.027821692 0.028316738 0.031190375 0.033624157
0.013913361 0.016721739 0.03745537 0.027607646 0.029836183 0.03513754 0.027615411 0.032144085
0.031269476 0.055640694 0.035193875 0.033580564 0.01097351 0.03185791 0.041766677 0.03605338
0.024258964 0.032135446 0.037923962 0.037457954 0.019549936 0.025390316 0.014514459 0.038094115
0.013249798 0.026142333 0.038692612 0.030689726 0.020606881 0.042131882 0.016525144 0.027700344

arith.constant22 f4 [256, 16]
00000000: c215 753d e0e7 97bd 96b6 a5bd ea39 383e
00000010: 8d7c cf3d 1dfe 9bbd 76a1 b1bd a1f7 d4bd
00000020: bf0b dcbd 830b 2d3e 67af 3d3d 9d30 37bd
00000030: 2916 a9bd 6a61 d73c b489 483e 9f39 a63d
00000040: c0ca 07be 4db5 3e3e 24ba f8bd 63b9 c83c
00000050: e7a3 d6bd 7564 8a3d fe91 9f3c d61e 2d3e
00000060: 2c85 063c a6fa 033b a09b 8a3d ad32 21be
00000070: 9845 57bd 445c a9bd 3e28 a5bc 73f1 aa3d
00000080: a48b b5bb db68 683d 205c 1f3e 81a8 1c3e
00000090: 6b6f 76bd 2566 a73d 414c e7bd d845 223e
000000a0: 4b00 9cbd 4060 45bd e62f 0bbe bda9 b73b
000000b0: c31a b2bd 201f 3f3c 6f2d 903c b69b fc3d
000000c0: 0491 38bd 1988 bebc 1768 143e 130e 15be
000000d0: 45f6 4e3d ee6f 72bc 2467 f1bd 1941 97bc
000000e0: ad09 00bc d07c 8cbc 962f c53d 4322 5d3d
000000f0: 6b87 a83d 6a13 acbd f65a 27bd 300f e0bd
00000100: cf1d fb3d 4327 35bd 0af7 86bd 4da1 9cbc
00000110: bf38 c53c 019a 11bd 1f3d 73bd d0b7 153e
00000120: a9d8 17be 2a53 a0bc b040 dd3d 0afd 9b3d
00000130: 624a 973c dde4 c03d f68c bf3d b0a4 fabd
00000140: 99e9 ce3d b8a0 72bc cceb ac3c d45d 5bbb
00000150: d764 623c e55d b1bc 5c85 fa3d 1f84 62bc
00000160: 526d f5bc b895 053d 082b c7bc cc37 513d
00000170: 2701 8d3d 8671 fc3d db7c 933d 46de a2bd
00000180: 17aa 7fbd b676 1ebe c5f1 44be ddc2 f83d
00000190: 510e 22be 29b5 dc3d 621e dcbc 42d6 9ebd
000001a0: efcf c8bc 2ae1 0bbd 2efd 57bc 86f0 123e
000001b0: 36d0 29be b80b 4a3c 0672 82bd 3fb6 a4bd
000001c0: d2bf 9e3d cb36 103d 1825 ed3d 9cb2 bdbd
000001d0: ee71 dfbd 4a62 30be 295e 543d c5c3 d1bc
000001e0: 7b45 02bd dcfb 98bb af21 c13d 712e 13be
000001f0: 6f2b f3bd ec61 2f3c 279c d7bc c831 0cbd
00000200: fa97 58bd cdfa 193e 80c4 dabc eb8a e3bc
00000210: 1bd1 cebd a311 aabc 1c06 0dbe 14c1 953d
00000220: 2bd3 673d e967 273e f704 69bd bcaf cd3d
00000230: 9129 11be df39 253c b6b4 2abd 1ee8 f2bd
00000240: 2798 66bd d52c 95bd fe64 46be c233 99bd
00000250: 5c19 03be 8407 83bd f57e cabd 42eb 993d
00000260: 3edf 65bc 70ae 0d3e ed23 9dbd 24a7 f33d
00000270: de28 21be 5c38 dbbd c6f4 c3bc c8ec 98bd
00000280: aac1 83bd 8d45 903c 5b79 013e ee30 c43d
00000290: f018 f4bd dc6b 4abd 56de 21bd 444f b73c
000002a0: bc65 ebbd 0a96 d13d e2d4 83bc 87f4 83bb
000002b0: 6b4c 483c d0a4 013b 6d64 923d 58cc b0bd
000002c0: 1cc0 d0bd 49cd e13b 2275 8a3c 61e3 aabc
000002d0: 298c 9e3c 8022 32be 2a3b 093e 551d 5fbd
000002e0: 2ce0 dc3b d0ae e53d 88ed 803d 7486 0bbe
000002f0: a2fb e53d fa1a 07be 7900 59bd 28f2 2b3e
00000300: 9c5c 083e 557e 9cbd df07 883d f571 4f3d
00000310: 5b26 a23d 61d2 a23c c88a 86bd 07a9 c83b
00000320: 662b 063e a1df 1c3c 2cf4 1b3d 9f78 25bd
00000330: 2b1e 443d bb6c 9abd 7cc0 c7bb b26e 77bb
00000340: 001b 1abe 1b16 97bd ba4f 41bc a185 ee3d
00000350: 9f64 c3bc 8174 47bb dd51 dcbd cb9c bdbd
00000360: 14ad a73d c1a8 bfbd 4ed3 eebd 4e60 14be
00000370: bb62 92bd 3180 663d 7e5b 5f3d 6b1b ebbd
00000380: 5bdb 473d 2fdd 7abb 259e 1f3e 10c7 cf3d
00000390: e25b 5b3d f945 25be e2d0 9bbd 170c e6bc
000003a0: 9d99 abbd 8c5a 0a3d 3f5e 433d 3a11 953d
000003b0: bfd1 8dbc 7b8d 1b3e 7d26 b0bd 0b57 11be
000003c0: 9bbd c03d 1ebd 2b3c 7937 903d 7e08 febc
000003d0: 0215 25bd 56a0 28bd 8754 e1bd c153 0c3e
000003e0: ea21 79bd 8eda 79bd c6ba a93c fe74 00bc
000003f0: 8c26 b33d 4afb 5fbd 5907 a8bd d860 04be
0.059835203 -0.074172735 -0.08091466 0.17990842 0.10131178 -0.07616828 -0.08673374 -0.10398794
-0.10744428 0.16898923 0.046309855 -0.044724096 -0.0825618 0.026291568 0.1958378 0.08116459
-0.13260937 0.18623848 -0.121448785 0.024502462 -0.10480481 0.06757442 0.019478794 0.16906294
0.008210462 0.0020138412 0.06767964 -0.15741988 -0.052556604 -0.082695514 -0.02016079 0.08346834
-0.005540328 0.056740623 0.15562487 0.15298654 -0.06016485 0.081737794 -0.11293841 0.15846956
-0.076172434 -0.048187494 -0.1359249 0.005604951 -0.08696511 0.011665136 0.01759979 0.12334387
-0.045060173 -0.023258256 0.14492832 -0.1455615 0.05052783 -0.014797194 -0.11787251 -0.018463658
-0.007814807 -0.017149359 0.09628217 0.053987753 0.08228954 -0.084021404 -0.04085823 -0.10940397
0.12261545 -0.044226896 -0.06590088 -0.019119883 0.02407491 -0.03554726 -0.05938446 0.146209
-0.14828743 -0.019570906 0.10803354 0.07616623 0.018468086 0.09418652 0.09353058 -0.12238443
0.10103149 -0.014808826 0.02110853 -0.0033472674 0.013817987 -0.021651218 0.122324675 -0.013825445
-0.029959355 0.032613486 -0.024312511 0.051078603 0.068849854 0.123263404 0.07201549 -0.079525515
-0.06241807 -0.15474972 -0.19232853 0.12146542 -0.15825774 0.10776741 -0.026869956 -0.0775571
-0.024513213 -0.03415028 -0.013182921 0.14349565 -0.16583332 0.0123318955 -0.063694045 -0.08042573
0.077514306 0.035208505 0.11579341 -0.09262583 -0.10910402 -0.17224994 0.05184761 -0.025606045
-0.031804543 -0.004668696 0.09430253 -0.14373185 -0.11873519 0.010704499 -0.026319576 -0.034227163
-0.05287931 0.15037079 -0.026705027 -0.027776202 -0.100984775 -0.020760363 -0.13771862 0.07312217
0.05659787 0.16348232 -0.0568895 0.10043284 -0.14176013 0.010084598 -0.041676246 -0.11860679
-0.056297448 -0.07283942 -0.19374463 -0.07480575 -0.12802643 -0.06397918 -0.098874964 0.07515575
-0.014030276 0.13836074 -0.07672868 0.11897114 -0.15738246 -0.10704109 -0.023920428 -0.074670374
-0.06433423 0.01761129 0.1264395 0.09579645 -0.11918819 -0.04941927 -0.039518677 0.022376664
-0.11494014 0.10233696 -0.016092721 -0.0040269527 0.012225251 0.0019782074 0.07148061 -0.086327255
-0.10192892 0.006890927 0.016901556 -0.020860376 0.019353943 -0.17395973 0.13401476 -0.054471333
0.0067405906 0.112149835 0.062953055 -0.13625509 0.11229636 -0.13193884 -0.052978966 0.16791594
0.13316578 -0.076412834 0.06642126 0.050645787 0.07917472 0.019875707 -0.06569439 0.0061236653
0.13102493 0.009574802 0.038074657 -0.040398236 0.047880333 -0.0754027 -0.006095944 -0.0037755189
-0.15049362 -0.07377263 -0.011798793 0.116465814 -0.02385169 -0.0030434432 -0.10757802 -0.092584215
0.08187309 -0.09358359 -0.11661397 -0.14489862 -0.071477376 0.056274597 0.054530613 -0.11479839
0.048793178 -0.0038278808 0.15587671 0.1014539 0.053554423 -0.16139974 -0.076082006 -0.028081937
-0.08378909 0.03377776 0.047697302 0.07278676 -0.017311929 0.1519069 -0.08601091 -0.1419336
0.094111644 0.010482101 0.070418306 -0.031009909 -0.040303238 -0.041168533 -0.110024504 0.13703825
-0.06082336 -0.060999446 0.020718943 -0.007840393 0.087475866 -0.054683007 -0.082045265 -0.12927568
